imagenet_vq_vae_model.bin (torch, 13171 bytes, 4 tensors)

conv1.weight f4 [5, 1, 5, 5]
000000 ce 23 01 3d b7 63 35 be 87 86 bf be de 3f f3 3d
       0.031528287 -0.1771382 -0.37407324 0.11877416
000010 65 fe 4f be de 34 91 3e c7 7c 7b be 97 23 60 3e
       -0.20311888 0.28360647 -0.24559318 0.21888576
000020 d6 89 9d bd b7 4b d8 3e 4f 04 25 3e ed 10 9e 3d
       -0.07692306 0.42245266 0.16114925 0.07718072
000030 57 c2 a1 be 40 2f e4 bd eb 68 2c bd 0c 83 17 bf
       -0.31593582 -0.11141825 -0.042092245 -0.59184337
000040 5a 8c 3f 3d 95 11 01 bf e2 83 8c be 48 d5 0b be
       0.04676471 -0.50417453 -0.2744437 -0.13655579
000050 74 45 d3 3e 6a de 87 3e e4 09 b1 3d ee 7f 45 bd
       0.41263926 0.26536876 0.086444646 -0.048217706
000060 f2 a3 64 3e d2 f9 0d 3c e9 cc 18 bf c4 61 87 3e
       0.22328165 0.008665519 -0.5968767 0.26441777
000070 d1 bc c4 3d c5 c7 b0 3e d5 5c 6d 3d 46 f4 99 be
       0.09606326 0.34527412 0.05794986 -0.30069178
000080 ad 8b 85 be 22 cc 54 be ec 51 96 bd 20 f4 14 be
       -0.26083127 -0.20780995 -0.07339844 -0.14546251
000090 c0 c7 93 be 1c 84 18 bf b9 99 02 be db b7 b4 bd
       -0.28863335 -0.5957658 -0.12753953 -0.0882413
0000a0 4c f8 6f bd b4 36 c4 bd ab 3e f4 be 15 1a 39 bf
       -0.058586404 -0.09580746 -0.47704062 -0.72305423
0000b0 e0 25 19 bf da e2 26 be ca 9f 23 be 38 33 a2 be
       -0.5982342 -0.16297475 -0.15978923 -0.31679702
0000c0 af 7e be 3e b9 4f c1 3e b8 b8 00 3d f5 70 c4 bd
       0.37206027 0.37756136 0.03142616 -0.09591857
0000d0 e5 f0 dd bc 25 fe 9d bd 54 77 af 3b 6b f1 17 3e
       -0.027092407 -0.0771449 0.005354801 0.14838187
0000e0 7b ba 99 3e 1b bc c7 be aa a2 98 3c c6 c8 71 3d
       0.30025086 -0.390107 0.018632252 0.059029363
0000f0 d6 16 b0 be ac ba 48 be a1 7e e2 be 70 79 20 3d
       -0.34392422 -0.1960246 -0.44237235 0.03917831
000100 4d be 06 3d 27 77 4b be 31 d9 6f bd b5 ab fa bc
       0.03289633 -0.19869672 -0.05855674 -0.030599454
000110 b2 8f 0c bf 7f 32 16 3f 24 4a 18 bf 2e 63 79 3e
       -0.5490676 0.586708 -0.5948813 0.2435424
000120 26 ef 10 be 4d fa 11 bf d7 d3 59 3d c7 e0 29 3d
       -0.14153728 -0.57022554 0.05318054 0.04147413
000130 e4 aa 1e 3f ca 05 15 3f 58 34 b6 be 17 a6 15 3f
       0.6197951 0.5821196 -0.3558681 0.5845656
000140 49 c5 c1 be 3a 42 36 3e 59 08 2b bf 88 fc 2e be
       -0.3784583 0.17798701 -0.6680961 -0.1708852
000150 36 50 3d bf dc 15 c6 3c 77 f3 12 bd ac 9d c8 3e
       -0.7395052 0.024180345 -0.035876717 0.39182794
000160 d0 39 11 3d 27 58 90 3e 12 c5 f6 be 5d ad 3d 3d
       0.035455525 0.28192255 -0.48197228 0.04630791
000170 02 99 f7 3d b5 4f 08 3e 61 13 5a be 48 b3 f2 bd
       0.12089731 0.13311656 -0.21296455 -0.118506014
000180 9f 0c 3f 3e 06 2a 5c bd d8 0a 34 3e bb c0 c1 3e
       0.18657158 -0.053751014 0.17582262 0.37842354
000190 ae 1c 86 3c fe 04 65 bd 67 55 40 bd dd 7a b4 be
       0.016371097 -0.055912964 -0.046956446 -0.35249987
0001a0 8d a3 d4 3e 8c 6c 72 be db 3f 59 3d f5 fb 8b be
       0.4153103 -0.2367422 0.053039413 -0.27340665
0001b0 52 78 c2 bc 92 6c 92 be 59 83 21 3e 0f bf 2f 3f
       -0.023739014 -0.28598458 0.15772761 0.6865091
0001c0 17 3c 4f be 4e a4 81 3e fe 42 73 be 14 c5 fd 3e
       -0.20237766 0.25320667 -0.23756024 0.4956442
0001d0 f0 1e 0c 3f 03 08 fd 3e cb b6 b4 3e 24 94 31 3e
       0.54734707 0.49420175 0.3529571 0.17341667
0001e0 86 b2 bd 3e d7 da e7 be f2 db 00 3f 0e d2 dc 3e
       0.37050265 -0.4528415 0.5033561 0.4312901
0001f0 25 1c 50 3f
       0.81292945

conv1.bias f4 [5]
000000 1f 70 f2 bd 80 82 0f 3e a9 ab 81 3d 46 24 39 3e
       -0.11837792 0.14014626 0.0633157 0.18080243
000010 ae ed 3f 3e
       0.18743011

fc3.weight f4 [2, 1360]
000000 b7 d0 ae 3b 74 0b 99 3b 14 51 8d bc 94 9c ad 3c
       0.0053349393 0.004670555 -0.017250575 0.021192826
000010 f1 3b 6b 3b ad b8 89 bc 2d e5 a0 bc a1 3f 69 3d
       0.0035893882 -0.016811693 -0.01964053 0.056945447
000020 8d 0a 87 3d a3 b5 89 3d 5c f5 db bc 45 99 30 3c
       0.06593809 0.067240976 -0.026850395 0.01077873
000030 18 89 80 3c ef b0 8a bc 5c 30 a4 3c 46 fe 88 3d
       0.015690371 -0.016930072 0.02004259 0.06689124
000040 11 23 5a 3b f0 e5 32 3c c5 77 ab bb 04 8b ab 3b
       0.0033285061 0.010919079 -0.0052327835 0.005235078
000050 da b3 97 ba 7c 99 75 3b 5d 94 af ba aa b0 75 3c
       -0.0011573986 0.0037475517 -0.0013395656 0.014995733
000060 86 3e 0c 3d f7 95 99 3c 92 d7 cf 3c c5 6c d0 bc
       0.034239314 0.018748267 0.025371347 -0.02544249
000070 d4 6b 05 bd aa e4 bf 3c 60 2e 56 3c 38 b8 5b 3c
       -0.032573536 0.023424465 0.01307258 0.01341062
000080 ff 02 7d bc 09 d1 ac bc 45 bf a0 b7 d5 b1 d2 ba
       -0.015442609 -0.02109577 -1.9162553e-05 -0.0016074727
000090 ba 9a 20 3d e2 b9 f7 3c f5 41 2c 3d 1a 0d 46 3d
       0.03921006 0.030240003 0.04205509 0.04835234
0000a0 26 f7 04 3c 41 13 57 3d 6a 3e 40 3d 44 49 85 3c
       0.008115565 0.052508596 0.046934523 0.016270287
0000b0 d3 d2 e3 bb 6d 4d e5 3c b9 d6 81 bc 76 d9 f7 3c
       -0.0069526224 0.027991021 -0.015849458 0.03025506
0000c0 e3 4c 89 3c f8 35 fd bb 01 cf e9 bc 3a be 93 3b
       0.016760295 -0.007727381 -0.02854109 0.0045087608
0000d0 1f 0b 9d bc 66 8d 14 3c 9a ec 5c bc 91 e4 25 3d
       -0.019170342 0.009066915 -0.013484145 0.04050118
0000e0 45 6f 99 ba 0e cb 0d 3b 0a d3 d4 3c e4 72 34 3d
       -0.0011706135 0.0021635923 0.025979538 0.04405488
0000f0 ed 63 83 3d 22 06 2b 3d 03 ef 65 3c 57 f1 d7 ba
       0.06415544 0.041753896 0.014034036 -0.0016475123
000100 b0 81 75 bc c8 1d bd bc 26 ba 3a bd b8 71 d4 bc
       -0.014984533 -0.02308549 -0.04558768 -0.025933132
000110 e0 8e 2b ba 06 84 64 3b 5f cc 8e 3a 49 40 14 bd
       -0.00065444224 0.003486873 0.0010894648 -0.03619412
000120 69 52 bf 3b 45 6e 76 3c 11 36 c2 3c 73 83 b3 bb
       0.0058386815 0.015040939 0.023707421 -0.0054783165
000130 b1 62 ef bc 47 9b e4 bc ba 7e 87 bc 02 fa 15 bd
       -0.029221864 -0.027906073 -0.01653992 -0.03661538
000140 2e 53 b6 bc bb 5c ea 3b 37 a5 e5 bb cf 8b 55 bc
       -0.02225646 0.0071521676 -0.0070082205 -0.013033821
000150 64 8d 1c 3d 42 80 5e bc 8e 72 a3 bb 40 6c 05 3d
       0.038220778 -0.013580384 -0.004988021 0.03257394
000160 a1 e7 b9 bc 72 a7 92 3b 9f de 21 bc 55 ae 31 bd
       -0.022693457 0.0044755274 -0.009879737 -0.043379147
000170 82 ee aa bc 82 c9 2e 3c a2 55 86 bc 52 fc 51 3c
       -0.020865683 0.01066816 -0.016398255 0.0128165055
000180 a8 75 7d 3b 9b 17 bb 3c d9 79 9e bb 0f d7 08 3d
       0.0038674865 0.022838404 -0.0048363027 0.03340822
000190 32 26 c2 3c 17 5a 6f 3d 6c 56 1d 3d 72 e8 d9 3c
       0.023699854 0.058435526 0.038412496 0.026600096
0001a0 e3 8c c7 3c 77 88 8d 3b af ab ab bc e3 5d 07 bc
       0.024359172 0.0043192464 -0.020955889 -0.00826213
0001b0 32 6d 24 bd 99 8e 05 bd 66 ee 53 3b 61 d1 22 bd
       -0.0401432 -0.032606695 0.0032338141 -0.03975046
0001c0 a5 c0 be bb 3d e5 ac bc dc c7 95 bb c3 fb 57 bb
       -0.005821305 -0.021105403 -0.0045709442 -0.0032956458
0001d0 22 50 58 3d 11 b6 d3 3c ce e1 f7 3c 5b be ef 3a
       0.052810796 0.025843652 0.03025904 0.0018290983
0001e0 be 80 03 3d cc cd b9 bc 35 2f 37 bd 21 a8 37 bc
       0.0321052 -0.02268114 -0.044722755 -0.011209519
0001f0 79 9c c4 bb 73 a3 19 bc b0 bb 9d bc af b5 4a 3d
       -0.0060000983 -0.009377348 -0.019254535 0.049489673
000200 c3 41 c5 bb 3d 81 94 bb 01 f2 d9 bb 37 f3 31 3d
       -0.0060198023 -0.004532008 -0.0066511636 0.04344484
000210 17 cc a8 3c ba 98 9a 3c e9 11 e5 bb 40 55 65 bc
       0.02060513 0.018871654 -0.0069906604 -0.013997376
000220 67 0e e1 3b 4b e9 9b 3c 92 eb 7c 3d ff 0c ba 3c
       0.006868172 0.019032141 0.061748095 0.022711275
000230 98 c8 17 3d e6 dc 4b bc 0e 88 1a bd ca f0 05 bd
       0.037056535 -0.012442803 -0.037727408 -0.032700337
000240 03 bb 6b bc 6c 78 16 bc 79 ea 9c bb 76 5a a5 3c
       -0.014387849 -0.009183984 -0.0047886935 0.020184737
000250 30 1d cf bc 20 ce be 3c 37 8f ea bb 27 8b 7f 3c
       -0.025282472 0.023291647 -0.007158186 0.015597141
000260 61 2b c3 3c 8a 4a aa 3c d5 03 09 3d 5c 2d a1 3c
       0.023824396 0.020787496 0.03345092 0.01967495
000270 0f 54 54 3c 48 f9 5e 3c cf ac 90 bb 1d ec 4a 3b
       0.012959494 0.013609238 -0.0044151316 0.0030963488
000280 0c 1b 04 bd f3 e1 cc bc f2 26 bb 3c 17 33 b5 3c
       -0.032252356 -0.025010085 0.022845719 0.022119088
000290 d3 94 70 3b b0 be 02 3d 64 b8 07 3d 0d 47 71 3c
       0.00367098 0.031920135 0.033134833 0.0147264125
0002a0 30 48 4f 3d 46 53 50 3b b6 27 fa bb d1 69 a5 bc
       0.050605953 0.0031787916 -0.0076341284 -0.020192059
0002b0 d3 70 d0 bb 2f fd 6d bb fc 0e 44 bd e8 60 ce bc
       -0.006361106 -0.003631424 -0.047865853 -0.025192693
0002c0 3d db 57 bd a9 81 37 bd 39 8e 0f bd f9 ad 2a bc
       -0.052699316 -0.044801388 -0.035047743 -0.010417455
0002d0 d1 e0 94 3c be 5d 86 3c af b0 fb 3c 18 bb bd bb
       0.018173607 0.016402122 0.030723898 -0.0057901256
0002e0 93 55 40 bc e0 b9 11 bd d8 bb 7e bd 33 38 d6 bc
       -0.0117391525 -0.035577655 -0.06219086 -0.026149845
0002f0 99 a5 d9 bc 01 f8 21 bd c6 9f a8 bc e8 5e 3d bd
       -0.02656822 -0.039543156 -0.020583998 -0.046233088
000300 6c 6a d3 bc 35 84 1c bd 95 9f 9f 3b 4f fb b2 bc
       -0.025807582 -0.03821202 0.0048713186 -0.021848349
000310 0b 01 94 3b 83 4a f1 3c cd 61 03 3d 00 ed 35 3d
       0.004516726 0.029454475 0.032075692 0.044415474
000320 71 ac dd 3c 4c e6 be 3b 2e fb da bb 05 0a 8e bc
       0.027059766 0.0058257934 -0.006682775 -0.017338762
000330 16 03 78 3c 57 a0 79 3b ce 59 b5 bc 1d 59 c8 bc
       0.0151374545 0.0038089955 -0.022137549 -0.024456555
000340 e6 f7 1d bd 3c 40 62 bd c9 b2 14 bd 90 f2 d8 bc
       -0.038566492 -0.05523704 -0.036303315 -0.02648285
000350 a7 a4 48 bc 22 05 51 bd 0b 7c d8 bc 8c 4b 05 3c
       -0.012246287 -0.051030286 -0.026426336 0.008135688
000360 96 14 0c 3c 08 dc b8 bb c4 9b 6f 3c 82 0f f7 3b
       0.00854983 -0.005641464 0.01462454 0.0075396905
000370 2d d7 54 3d e0 fe 5d 3d c7 1d 93 3c 27 7f 22 3d
       0.05196302 0.054198146 0.017958535 0.039672043
000380 67 00 64 3b da 4d a1 bb 4a e4 0c bc 8f d1 00 bd
       0.003479028 -0.0049226107 -0.00859935 -0.03144985
000390 41 38 75 38 04 51 a4 bc fe d8 21 ba 99 fb 41 bd
       5.8464942e-05 -0.020058163 -0.0006173997 -0.047359083
0003a0 a9 38 2a bc 1a 85 e8 bc 10 b4 91 3b 49 49 00 bd
       -0.010389485 -0.02838378 0.004446514 -0.03131989
0003b0 08 eb 08 3c 37 71 81 bb df ab 65 bb f1 12 03 3d
       0.008356817 -0.003950264 -0.003504507 0.032000486
0003c0 c2 10 fb bc d4 4c 6a bd 4c ac 83 bc 26 39 91 bc
       -0.03064764 -0.057202175 -0.016073368 -0.017727446
0003d0 17 cd 5c bc d6 1c 5e bd fc b5 21 bc 11 0f 54 bd
       -0.013476632 -0.05422672 -0.009870049 -0.05177218
0003e0 97 bf f5 bc b9 3a 26 bc 8c f3 f6 39 58 7b 1b 3d
       -0.029998584 -0.0101458365 0.00047102233 0.037959427
0003f0 15 5f 2b 3d c4 5f 00 3c b1 02 7d 3d 86 f9 7e 3d
       0.041838724 0.007835332 0.061770145 0.062249683

fc3.bias f4 [2]
000000 f9 23 c9 3c 33 55 b7 bc
       0.024553286 -0.022379493
