imagenet_vq_vae_model.bin (torch, 11379 bytes, 4 tensors)

conv1.weight f4 [7, 1, 3, 7]
000000 ab c7 63 3e bf ec 06 3f c0 26 9c be 26 7f e0 3e
       0.22244136 0.52704996 -0.30498314 0.43847007
000010 fb 56 ec 3e b2 4a ba be cb 5d c5 3e 39 e9 e2 be
       0.4616011 -0.36385113 0.3854812 -0.4431856
000020 84 3b 8d bd ae 6a 8b 3e fa 68 fa be 5d c7 af be
       -0.06896117 0.27229828 -0.48908216 -0.3433179
000030 24 23 6d 3e da 64 85 be 72 cf 12 3e e9 5d f2 3e
       0.23157936 -0.26053506 0.14336947 0.47337273
000040 34 93 63 be 49 ca 4f 3e 6e 4e 3a 3e 01 b4 02 3f
       -0.22224122 0.2029201 0.18193981 0.51055914
000050 da 52 cb 3e 6c c9 fb be b1 bd f7 be 51 6c 95 3c
       0.39711648 -0.4917711 -0.4838691 0.018240126
000060 10 43 a5 be d9 8c c3 3e 75 69 71 be b0 11 d3 3e
       -0.32277727 0.38193396 -0.23575385 0.41224432
000070 c6 8f 61 bd af 48 dd 3e 19 8c dd bc b3 22 35 3e
       -0.055068754 0.43219516 -0.027044343 0.17689018
000080 37 96 92 3d 44 a2 02 3f 9d 80 d5 3d 28 77 c7 be
       0.071575575 0.5102885 0.10424922 -0.38958097
000090 f0 ff 90 3e 09 1d 1a 3e 67 fa f6 3e 39 63 ae 3d
       0.28320265 0.15050139 0.48237917 0.08515019
0000a0 ca c6 09 3f c0 e9 92 3e 74 7b 73 3e 6e 7b 96 3e
       0.53818953 0.28693962 0.23777562 0.29391044
0000b0 f7 ae 55 bd 05 53 4e be d0 39 13 3f 02 4c 19 3e
       -0.052168813 -0.20148857 0.5751009 0.14970401
0000c0 e6 49 1a be af 19 c0 be e7 0d b7 3e 2e 71 ee 3e
       -0.15067253 -0.37519595 0.35752794 0.46570724
0000d0 c7 53 5c 3e dc 42 f8 be 55 74 e8 3d 59 22 86 be
       0.21516334 -0.4848851 0.113503136 -0.2619808
0000e0 e1 9a 94 3e c3 1d 2e bd 51 d4 d2 be b6 9b f5 3a
       0.29024413 -0.04250885 -0.4117761 0.0018738422
0000f0 f0 92 a1 3e 69 b4 fd 3e 17 b9 78 be 67 48 f7 be
       0.31557417 0.49551705 -0.24289356 -0.48297426
000100 bd 0f 85 3e 27 d1 0a bf 72 35 06 bf f2 03 cd bd
       0.2598857 -0.5422539 -0.524253 -0.10010518
000110 b1 69 db be 97 89 9f 3e 0f c7 ec be 7b 13 05 3f
       -0.42854074 0.3115966 -0.4624562 0.5198285
000120 1c 15 ae 3e 53 64 25 3c 55 3a d5 be 63 c2 49 be
       0.3400048 0.01009472 -0.41646066 -0.19703059
000130 ac c3 fd 3e b1 9a b9 bc 69 e5 94 3e 1c a6 42 be
       0.49563348 -0.02265677 0.29081276 -0.19008678
000140 6c d1 db bd 81 a3 6f be 7f 7f 30 bd fe 12 05 3e
       -0.107333034 -0.23402216 -0.04309034 0.12995526
000150 62 cb 4f 3e 5c d9 f7 bd 15 c8 a1 3e 5c cf ba 3c
       0.20292428 -0.12102005 0.31597963 0.022803955
000160 a1 ac c2 3c b9 53 ab be 6c 6e cd 3e 59 54 12 be
       0.023763957 -0.33462313 0.40123308 -0.14289989
000170 41 5f c2 bb 97 09 4c 3e 64 92 b2 3e 81 48 9f 3c
       -0.0059317653 0.19925533 0.34877312 0.019443752
000180 d5 ac 2c 3e 70 74 f4 be a5 66 c1 bc 69 0b 50 3e
       0.16862805 -0.47745085 -0.023608515 0.20316853
000190 53 07 04 3f e1 27 82 3e 88 0a f6 3e af db 37 3e
       0.51573676 0.2542105 0.4805491 0.17954896
0001a0 e1 fc 0f bd b1 00 c1 be 7e 10 b5 be 9a 73 8a be
       -0.035153273 -0.3769584 -0.35364145 -0.27041322
0001b0 8e e4 71 be 5b 08 e4 3e 66 63 0b 3d ca c4 f0 3d
       -0.23622343 0.44537625 0.03403034 0.117562845
0001c0 75 61 26 3d e9 d9 ce bd 69 3a 92 3e e3 c6 6f 3e
       0.040620286 -0.10100157 0.28560188 0.23415713
0001d0 94 4f 98 be 19 07 69 be cf 84 db 3d dd 16 68 bc
       -0.29748213 -0.22756614 0.107186906 -0.014165607
0001e0 dc 6b e9 3d e8 95 f9 be 2b 32 ef 3e dc 15 c8 3e
       0.11397526 -0.48747182 0.46717963 0.39079177
0001f0 6e 63 63 3e cb 49 76 be da 8a de be f8 33 9e be
       0.22205898 -0.24051587 -0.4346531 -0.30899024
000200 d9 0c 55 be 0b 8d fd 3e f0 db 8f be 61 b2 83 3e
       -0.20805682 0.4952167 -0.28097486 0.2572203
000210 0a d0 62 bd 56 04 a9 be af 35 12 3e 06 de aa 3e
       -0.055374183 -0.3301112 0.14278291 0.33372515
000220 ee 25 12 3e ee de 26 3e 94 36 30 be d3 9a e0 be
       0.14272282 0.16295978 -0.1720832 -0.43868122
000230 7c d7 a5 be e7 5d 0a bf 9d c1 8b bd 48 3f 2a 3e
       -0.32390964 -0.54049534 -0.06824038 0.16625702
000240 22 24 21 3d cb b4 99 3e 6b 85 98 bd
       0.0393411 0.30020747 -0.074473225

conv1.bias f4 [7]
000000 81 9c 40 3d 1e 31 0e be a5 25 1d 3e 31 34 c6 bc
       0.047024254 -0.13885924 0.15346391 -0.024194809
000010 56 3b ce bd a2 9b b9 bc c8 f0 03 be
       -0.10069911 -0.02265722 -0.1288482

fc3.weight f4 [2, 1134]
000000 bc 16 11 bd 22 48 29 bd 10 47 8a bc 8b da 34 3c
       -0.03542207 -0.041328557 -0.016879588 0.011038433
000010 1a 43 f7 bb 33 71 0e bc e9 ba a9 bc 3a c6 1b bd
       -0.007545841 -0.008693981 -0.020719009 -0.03803084
000020 d2 ea a9 3c ea 33 e4 bc 03 01 1d 3b 83 77 87 bc
       0.020741854 -0.027856786 0.0023956902 -0.01653648
000030 ed 39 cc 3c 70 ad 83 3b 42 45 75 ba 13 15 49 3c
       0.024929965 0.004018478 -0.00093563285 0.012273091
000040 c5 ac 8a bb 22 ac 42 bc 3c ce b6 3a 65 4f d9 bc
       -0.0042320215 -0.01188186 0.0013946961 -0.026527116
000050 c9 a2 14 3b 42 67 9d bc 8d e7 41 3c 71 92 e3 3c
       0.0022680035 -0.019214276 0.011834991 0.02777979
000060 b2 d0 18 3c 33 bc a5 bc 77 c4 9c 3c 35 f1 af 3c
       0.009327101 -0.020231342 0.01913665 0.021477321
000070 38 c3 bd 3b 5c 10 0a bc 10 9f 82 bb 22 b5 fd bc
       0.005791094 -0.008426752 -0.003986247 -0.03097016
000080 f2 15 04 bd 6e 10 a5 bb b1 74 70 3c f9 0a 7d 3c
       -0.03224749 -0.005037359 0.014676259 0.015444511
000090 83 22 ad bc 80 0f b3 bb 97 f2 d0 bb 01 f4 8c bb
       -0.02113462 -0.005464494 -0.006376575 -0.0043015485
0000a0 01 dc 18 39 13 37 cf bc d2 15 87 3c fe 24 a7 bc
       0.00014577807 -0.025294816 0.016489897 -0.020403381
0000b0 c7 6b 16 3c 0a c4 13 bd 5d 76 3f bc 54 be e2 3a
       0.00918097 -0.03607563 -0.011685935 0.0017299154
0000c0 f2 57 94 bc 7d f0 ab b9 44 5a 23 3b 2e a9 89 3c
       -0.018108342 -0.0003279484 0.0024925629 0.016804304
0000d0 06 cd c0 bb 65 88 2c 3b 82 9e 91 3c 21 a7 b2 bc
       -0.0058838157 0.0026326415 0.017775778 -0.021808209
0000e0 27 23 6e 3b 78 37 28 bc e8 b7 97 bb 90 b5 c5 bc
       0.003633687 -0.010267131 -0.0046300776 -0.024134427
0000f0 5d b0 55 bc e1 0a bc 3c af 75 19 3d 73 bc c6 b9
       -0.013042537 0.022954406 0.037465747 -0.00037905909
000100 a1 dc d8 bb d6 06 e4 3c ec 77 c9 bc 6d 74 f5 bc
       -0.006618098 0.02783529 -0.024593316 -0.029962743
000110 55 dc 08 bd 7c 89 65 3c d6 59 ce bc a2 a3 a0 bc
       -0.03341325 0.01400983 -0.025189321 -0.019609276
000120 3e 17 71 bc 87 2f d5 3c ac 0f b2 3c cf 35 0f 3d
       -0.014715014 0.02602364 0.021735989 0.034963425
000130 f2 55 b1 3c b8 7b 6e 3c 84 09 c4 3c 00 ea f4 3c
       0.021647427 0.014555864 0.023930319 0.029896736
000140 3a 38 f7 bc f0 34 77 bb b3 ee 11 3c fc 0f e9 3c
       -0.030178178 -0.0037720762 0.008907008 0.028450005
000150 62 d3 7c 3c b0 fe 97 3c 69 de c3 bc e6 5e 93 3c
       0.015431257 0.018554062 -0.023909764 0.017989587
000160 bc 97 c0 38 07 78 93 bc 16 3c 50 bc 15 70 b6 bc
       9.183536e-05 -0.01800157 -0.012709638 -0.022270242
000170 48 e4 ea bb 31 57 d3 bc ce d4 ff ba 1c f0 94 3c
       -0.0071683265 -0.025798412 -0.0019518377 0.0181809
000180 03 bc 6d bc f1 a6 6d 3c 14 84 8b bc e1 4b d4 3c
       -0.0145101575 0.014505134 -0.017030753 0.025915088
000190 85 e9 23 bc 46 3e b4 bc dc ed e5 bb 01 07 db 3b
       -0.010004406 -0.02200235 -0.0070168804 0.0066841845
0001a0 77 37 67 3c 5b a4 e2 bc a3 2a 79 ba a7 ae d0 bc
       0.014112345 -0.027666261 -0.00095049496 -0.025473906
0001b0 d7 56 b9 3b 01 1f a6 3c f6 4a 70 3c b6 be 8a 3c
       0.005656104 0.020278456 0.01466631 0.016936641
0001c0 be 3b 02 bc 9a 90 ae bb c5 a5 3e bc c6 0a 97 bc
       -0.007948814 -0.0053272964 -0.011636202 -0.018437754
0001d0 33 3e ac 3a e2 c8 8e bc e2 26 80 3a 58 e8 a0 bc
       0.0013141095 -0.017429773 0.0009777213 -0.01964204
0001e0 fc ee e3 3c bd 68 1f 3c 72 af 66 bb e9 1a 67 3c
       0.027823918 0.009729561 -0.0035199788 0.014105537
0001f0 a6 66 24 3d 68 f2 8c 3c 1e 5b 4e 3c 2a 91 bc 3c
       0.040136956 0.017205432 0.012594966 0.023018438
000200 d2 e7 91 bb 26 f6 05 3d 88 a9 85 3a b4 6d 43 bc
       -0.004452684 0.03270545 0.0010197619 -0.011928011
000210 ee c6 8b bc 4d 48 a6 bb 0f ae 59 3c 6b fe f5 bb
       -0.01706263 -0.005074537 0.013286128 -0.0075071356
000220 e5 d9 68 bc 25 ee b2 bc 21 05 e4 3a f5 51 a2 3c
       -0.014212106 -0.021842072 0.0017396548 0.01981447
000230 2e c1 33 3c 7f 9a 02 3c 93 d9 03 3c 03 43 ea 3b
       0.010971351 0.007971405 0.008047479 0.0071491017
000240 45 29 82 3c 1d 6a dc b8 da d0 fe bc 8f b6 e8 3c
       0.01588882 -0.000105101826 -0.031105448 0.028407363
000250 fe 52 bd 3b 4d ca 93 bc de 1d 03 3c 7c 15 d2 b8
       0.0057777157 -0.0180408 0.008002726 -0.00010017582
000260 f9 0d d0 ba 5f 3a 44 3c e4 dc 6f bc 71 5a 87 bc
       -0.0015873305 0.011976807 -0.014640067 -0.016522618
000270 57 c5 b6 3c fb a8 d4 39 d8 23 bd 3b 84 ac 9c 3c
       0.022310896 0.0004056169 0.005772095 0.01912523
000280 44 f7 ff 3a ca 1e de 3c a5 4c 23 bd 37 0d d1 3b
       0.0019528647 0.02711429 -0.039868016 0.006379749
000290 2f f7 17 bc b1 17 0f 3d 05 1b 1f bc c0 8c ba bc
       -0.009275242 0.034934703 -0.009711032 -0.022772193
0002a0 f1 10 3a bd 65 2c 15 3b 9b 03 12 bb 74 c1 5c 3c
       -0.045426313 0.0022762057 -0.002227998 0.013473857
0002b0 d4 ff f5 bb 08 14 ea bc 9e 30 97 3c 03 9a 0f bc
       -0.0075073037 -0.028574005 0.0184558 -0.008764747
0002c0 9e c5 83 3c ef cd a1 3c 52 b7 06 3b 00 ef d9 39
       0.016085442 0.019751517 0.0020556045 0.00041567534
0002d0 43 7d 10 3c e3 82 a9 bb b4 ed 45 bc 71 cd 35 bc
       0.008818927 -0.0051730736 -0.012080599 -0.011096344
0002e0 a4 34 50 bd d3 14 7b bc c1 20 b5 bc 93 94 23 3b
       -0.050831452 -0.015324789 -0.022110345 0.0024960383
0002f0 57 e3 2d 3c 2b 00 ac 3a 85 43 ac 3c 44 fb fa 3c
       0.010613284 0.0013122609 0.02102829 0.03063739
000300 6c 56 05 bd 79 a5 1b bc bb b1 d5 bc a8 ae cc bc
       -0.03255312 -0.009499901 -0.026085725 -0.024985626
000310 02 a4 d1 3a b8 c1 cf 3c 9c 35 1f 3c 92 7d ce bc
       0.0015994313 0.025360927 0.009717371 -0.025206361
000320 38 93 cb bc 7a 3e b2 3c 85 f7 e0 3b e1 82 90 3c
       -0.024850473 0.021758307 0.006865444 0.017640533
000330 27 62 08 3c de 3d f8 bc 36 cd 0f 3c 0b d1 12 3c
       0.008324183 -0.030302938 0.008776953 0.008960973
000340 f5 fd fe 3c 4f ad fa bb a1 3b a2 ba 22 19 04 3c
       0.031126956 -0.0076500545 -0.001237739 0.008062633
000350 a8 3e 16 bc 0f d5 c8 bc 92 df c1 bc c1 c0 13 bc
       -0.009170212 -0.024515657 -0.023666177 -0.009018124
000360 85 4b 47 bc 26 fe bc bc c3 8f f9 3b 32 bd 0c bb
       -0.012164001 -0.023070406 0.0076160147 -0.0021475074
000370 b3 e1 7e bb f1 78 7e 3b ea 73 84 3c ea 56 0c 3d
       -0.0038891851 0.003882941 0.016168553 0.034262575
000380 3e f6 de 3c da 49 c5 3c d8 f9 cd bc e4 bb 92 3c
       0.027217027 0.024083067 -0.025143549 0.017911859
000390 1d 89 ff 3c 0e 3c 77 3b 9a 37 61 bc a6 a4 7f 39
       0.03119331 0.0037725004 -0.013746167 0.00024380031
0003a0 cc 7d 0f 3d b5 4d 28 bb 7e e3 07 3d e5 c2 c9 bb
       0.03503208 -0.0025681083 0.033175938 -0.0061572664
0003b0 5b da 2c 3d f1 b7 1f bc 94 bf fa 3c 33 d8 1c 3d
       0.042200428 -0.009748445 0.03060893 0.03829212
0003c0 09 24 70 bc 12 7d 4b 3b 65 fb a8 bc e9 7d 9a 3c
       -0.014657029 0.003104989 -0.020627687 0.018858867
0003d0 5a 0c 4d bc 8d 3d 0e 3c ec 70 4b 3b 62 12 a4 bb
       -0.012515152 0.008681667 0.0031042648 -0.005007074
0003e0 d5 63 7a 3c 72 a0 26 bd ba bd 6d bc da 6e 49 3b
       0.015282591 -0.040680356 -0.014510566 0.0030736239
0003f0 42 c0 31 bc 4f 67 80 3b 5e 01 1d 3c 98 6b e7 bc
       -0.0108490605 0.0039185653 0.0095828455 -0.028249547

fc3.bias f4 [2]
000000 d5 21 ca 3b e2 10 af bc
       0.006168584 -0.021370355
